{"config": [{"config": {"batch_input_shape": [1, 5, 11], "bias_constraint": null, "recurrent_activation": "hard_sigmoid", "dtype": "float32", "kernel_constraint": null, "name": "lstm_1", "recurrent_dropout": 0.0, "unit_forget_bias": true, "bias_initializer": {"config": {}, "class_name": "Zeros"}, "kernel_initializer": {"config": {"mode": "fan_avg", "distribution": "uniform", "seed": null, "scale": 1.0}, "class_name": "VarianceScaling"}, "implementation": 0, "go_backwards": false, "recurrent_constraint": null, "kernel_regularizer": null, "use_bias": true, "return_sequences": true, "recurrent_initializer": {"config": {"gain": 1.0, "seed": null}, "class_name": "Orthogonal"}, "bias_regularizer": null, "units": 11, "stateful": true, "dropout": 0.0, "trainable": true, "activation": "tanh", "unroll": false, "recurrent_regularizer": null, "activity_regularizer": null}, "class_name": "LSTM"}, {"config": {"unit_forget_bias": true, "bias_constraint": null, "recurrent_activation": "hard_sigmoid", "recurrent_regularizer": null, "kernel_constraint": null, "name": "lstm_2", "recurrent_dropout": 0.0, "bias_initializer": {"config": {}, "class_name": "Zeros"}, "kernel_initializer": {"config": {"mode": "fan_avg", "distribution": "uniform", "seed": null, "scale": 1.0}, "class_name": "VarianceScaling"}, "use_bias": true, "implementation": 0, "go_backwards": false, "recurrent_constraint": null, "kernel_regularizer": null, "unroll": false, "return_sequences": true, "recurrent_initializer": {"config": {"gain": 1.0, "seed": null}, "class_name": "Orthogonal"}, "bias_regularizer": null, "units": 11, "stateful": false, "dropout": 0.0, "trainable": true, "activation": "tanh", "activity_regularizer": null}, "class_name": "LSTM"}, {"config": {"rate": 0.3, "trainable": true, "name": "dropout_1"}, "class_name": "Dropout"}, {"config": {"unit_forget_bias": true, "bias_constraint": null, "recurrent_activation": "hard_sigmoid", "recurrent_regularizer": null, "kernel_constraint": null, "name": "lstm_3", "recurrent_dropout": 0.0, "bias_initializer": {"config": {}, "class_name": "Zeros"}, "kernel_initializer": {"config": {"mode": "fan_avg", "distribution": "uniform", "seed": null, "scale": 1.0}, "class_name": "VarianceScaling"}, "use_bias": true, "implementation": 0, "go_backwards": false, "recurrent_constraint": null, "kernel_regularizer": null, "unroll": false, "return_sequences": false, "recurrent_initializer": {"config": {"gain": 1.0, "seed": null}, "class_name": "Orthogonal"}, "bias_regularizer": null, "units": 11, "stateful": false, "dropout": 0.0, "trainable": true, "activation": "tanh", "activity_regularizer": null}, "class_name": "LSTM"}, {"config": {"bias_constraint": null, "bias_regularizer": null, "kernel_constraint": null, "name": "dense_1", "units": 4, "trainable": true, "bias_initializer": {"config": {}, "class_name": "Zeros"}, "kernel_initializer": {"config": {"mode": "fan_avg", "distribution": "uniform", "seed": null, "scale": 1.0}, "class_name": "VarianceScaling"}, "activation": "softmax", "use_bias": true, "kernel_regularizer": null, "activity_regularizer": null}, "class_name": "Dense"}], "keras_version": "2.0.4", "backend": "tensorflow", "class_name": "Sequential"}