{"class_name": "Sequential", "backend": "tensorflow", "keras_version": "2.0.4", "config": [{"class_name": "LSTM", "config": {"kernel_constraint": null, "use_bias": true, "kernel_regularizer": null, "recurrent_regularizer": null, "recurrent_initializer": {"class_name": "Orthogonal", "config": {"gain": 1.0, "seed": null}}, "batch_input_shape": [1, 5, 11], "unroll": false, "recurrent_constraint": null, "dropout": 0.0, "kernel_initializer": {"class_name": "VarianceScaling", "config": {"mode": "fan_avg", "scale": 1.0, "distribution": "uniform", "seed": null}}, "go_backwards": false, "units": 11, "recurrent_dropout": 0.0, "stateful": true, "bias_regularizer": null, "activity_regularizer": null, "name": "lstm_1", "unit_forget_bias": true, "return_sequences": true, "trainable": true, "recurrent_activation": "hard_sigmoid", "bias_initializer": {"class_name": "Zeros", "config": {}}, "dtype": "float32", "activation": "tanh", "implementation": 0, "bias_constraint": null}}, {"class_name": "LSTM", "config": {"kernel_constraint": null, "use_bias": true, "kernel_regularizer": null, "recurrent_regularizer": null, "recurrent_initializer": {"class_name": "Orthogonal", "config": {"gain": 1.0, "seed": null}}, "unroll": false, "recurrent_constraint": null, "dropout": 0.0, "kernel_initializer": {"class_name": "VarianceScaling", "config": {"mode": "fan_avg", "scale": 1.0, "distribution": "uniform", "seed": null}}, "go_backwards": false, "units": 11, "recurrent_dropout": 0.0, "stateful": false, "bias_regularizer": null, "activity_regularizer": null, "name": "lstm_2", "unit_forget_bias": true, "return_sequences": true, "trainable": true, "activation": "tanh", "bias_initializer": {"class_name": "Zeros", "config": {}}, "recurrent_activation": "hard_sigmoid", "implementation": 0, "bias_constraint": null}}, {"class_name": "LSTM", "config": {"kernel_constraint": null, "use_bias": true, "kernel_regularizer": null, "recurrent_regularizer": null, "recurrent_initializer": {"class_name": "Orthogonal", "config": {"gain": 1.0, "seed": null}}, "unroll": false, "recurrent_constraint": null, "dropout": 0.0, "kernel_initializer": {"class_name": "VarianceScaling", "config": {"mode": "fan_avg", "scale": 1.0, "distribution": "uniform", "seed": null}}, "go_backwards": false, "units": 11, "recurrent_dropout": 0.0, "stateful": false, "bias_regularizer": null, "activity_regularizer": null, "name": "lstm_3", "unit_forget_bias": true, "return_sequences": true, "trainable": true, "activation": "tanh", "bias_initializer": {"class_name": "Zeros", "config": {}}, "recurrent_activation": "hard_sigmoid", "implementation": 0, "bias_constraint": null}}, {"class_name": "LSTM", "config": {"kernel_constraint": null, "use_bias": true, "kernel_regularizer": null, "recurrent_regularizer": null, "recurrent_initializer": {"class_name": "Orthogonal", "config": {"gain": 1.0, "seed": null}}, "unroll": false, "recurrent_constraint": null, "dropout": 0.0, "kernel_initializer": {"class_name": "VarianceScaling", "config": {"mode": "fan_avg", "scale": 1.0, "distribution": "uniform", "seed": null}}, "go_backwards": false, "units": 6, "recurrent_dropout": 0.0, "stateful": false, "bias_regularizer": null, "activity_regularizer": null, "name": "lstm_4", "unit_forget_bias": true, "return_sequences": false, "trainable": true, "activation": "tanh", "bias_initializer": {"class_name": "Zeros", "config": {}}, "recurrent_activation": "hard_sigmoid", "implementation": 0, "bias_constraint": null}}, {"class_name": "Dense", "config": {"kernel_constraint": null, "bias_regularizer": null, "activity_regularizer": null, "name": "dense_1", "kernel_regularizer": null, "trainable": true, "activation": "softmax", "bias_initializer": {"class_name": "Zeros", "config": {}}, "bias_constraint": null, "use_bias": true, "kernel_initializer": {"class_name": "VarianceScaling", "config": {"mode": "fan_avg", "scale": 1.0, "distribution": "uniform", "seed": null}}, "units": 4}}]}