{"backend": "tensorflow", "class_name": "Sequential", "config": [{"class_name": "LSTM", "config": {"recurrent_regularizer": null, "recurrent_initializer": {"class_name": "Orthogonal", "config": {"seed": null, "gain": 1.0}}, "recurrent_activation": "hard_sigmoid", "name": "lstm_1", "kernel_initializer": {"class_name": "VarianceScaling", "config": {"distribution": "uniform", "seed": null, "scale": 1.0, "mode": "fan_avg"}}, "unit_forget_bias": true, "use_bias": true, "batch_input_shape": [1, 5, 11], "activation": "tanh", "dropout": 0.0, "recurrent_constraint": null, "units": 11, "bias_initializer": {"class_name": "Zeros", "config": {}}, "recurrent_dropout": 0.0, "kernel_constraint": null, "activity_regularizer": null, "implementation": 0, "dtype": "float32", "bias_constraint": null, "trainable": true, "return_sequences": true, "go_backwards": false, "kernel_regularizer": null, "bias_regularizer": null, "unroll": false, "stateful": true}}, {"class_name": "LSTM", "config": {"recurrent_regularizer": null, "recurrent_initializer": {"class_name": "Orthogonal", "config": {"seed": null, "gain": 1.0}}, "recurrent_activation": "hard_sigmoid", "name": "lstm_2", "unroll": false, "unit_forget_bias": true, "use_bias": true, "bias_initializer": {"class_name": "Zeros", "config": {}}, "activation": "tanh", "dropout": 0.0, "recurrent_constraint": null, "units": 11, "recurrent_dropout": 0.0, "kernel_constraint": null, "activity_regularizer": null, "kernel_regularizer": null, "bias_constraint": null, "trainable": true, "return_sequences": true, "go_backwards": false, "implementation": 0, "bias_regularizer": null, "kernel_initializer": {"class_name": "VarianceScaling", "config": {"distribution": "uniform", "seed": null, "scale": 1.0, "mode": "fan_avg"}}, "stateful": false}}, {"class_name": "LSTM", "config": {"recurrent_regularizer": null, "recurrent_initializer": {"class_name": "Orthogonal", "config": {"seed": null, "gain": 1.0}}, "recurrent_activation": "hard_sigmoid", "name": "lstm_3", "unroll": false, "unit_forget_bias": true, "use_bias": true, "bias_initializer": {"class_name": "Zeros", "config": {}}, "activation": "tanh", "dropout": 0.0, "recurrent_constraint": null, "units": 11, "recurrent_dropout": 0.0, "kernel_constraint": null, "activity_regularizer": null, "kernel_regularizer": null, "bias_constraint": null, "trainable": true, "return_sequences": true, "go_backwards": false, "implementation": 0, "bias_regularizer": null, "kernel_initializer": {"class_name": "VarianceScaling", "config": {"distribution": "uniform", "seed": null, "scale": 1.0, "mode": "fan_avg"}}, "stateful": false}}, {"class_name": "LSTM", "config": {"recurrent_regularizer": null, "recurrent_initializer": {"class_name": "Orthogonal", "config": {"seed": null, "gain": 1.0}}, "recurrent_activation": "hard_sigmoid", "name": "lstm_4", "unroll": false, "unit_forget_bias": true, "use_bias": true, "bias_initializer": {"class_name": "Zeros", "config": {}}, "activation": "tanh", "dropout": 0.0, "recurrent_constraint": null, "units": 6, "recurrent_dropout": 0.0, "kernel_constraint": null, "activity_regularizer": null, "kernel_regularizer": null, "bias_constraint": null, "trainable": true, "return_sequences": false, "go_backwards": false, "implementation": 0, "bias_regularizer": null, "kernel_initializer": {"class_name": "VarianceScaling", "config": {"distribution": "uniform", "seed": null, "scale": 1.0, "mode": "fan_avg"}}, "stateful": false}}, {"class_name": "Dense", "config": {"kernel_constraint": null, "trainable": true, "name": "dense_1", "kernel_initializer": {"class_name": "VarianceScaling", "config": {"distribution": "uniform", "seed": null, "scale": 1.0, "mode": "fan_avg"}}, "bias_regularizer": null, "use_bias": true, "bias_constraint": null, "activity_regularizer": null, "bias_initializer": {"class_name": "Zeros", "config": {}}, "activation": "softmax", "kernel_regularizer": null, "units": 4}}], "keras_version": "2.0.4"}