_________________________________________________________________
Layer (type)                 Output Shape              Param #   
=================================================================
lstm_1 (LSTM)                (1, 5, 11)                1012      
_________________________________________________________________
lstm_2 (LSTM)                (1, 5, 16)                1792      
_________________________________________________________________
dropout_1 (Dropout)          (1, 5, 16)                0         
_________________________________________________________________
lstm_3 (LSTM)                (1, 5, 32)                6272      
_________________________________________________________________
dropout_2 (Dropout)          (1, 5, 32)                0         
_________________________________________________________________
lstm_4 (LSTM)                (1, 16)                   3136      
_________________________________________________________________
dense_1 (Dense)              (1, 8)                    136       
_________________________________________________________________
dense_2 (Dense)              (1, 4)                    36        
=================================================================
Total params: 12,384
Trainable params: 12,384
Non-trainable params: 0
_________________________________________________________________
None

Fold 0
accuratezza media per l'epoca 0 sul training set: 0.26008202944
accuratezza sul test set :0.25---------------------
accuratezza media per l'epoca 1 sul training set: 0.227272727273
…
