_________________________________________________________________
Layer (type)                 Output Shape              Param #   
=================================================================
lstm_1 (LSTM)                (1, 5, 8)                 640       
_________________________________________________________________
lstm_2 (LSTM)                (1, 5, 8)                 544       
_________________________________________________________________
dropout_1 (Dropout)          (1, 5, 8)                 0         
_________________________________________________________________
lstm_3 (LSTM)                (1, 8)                    544       
_________________________________________________________________
dense_1 (Dense)              (1, 8)                    72        
_________________________________________________________________
dense_2 (Dense)              (1, 4)                    36        
=================================================================
Total params: 1,836
Trainable params: 1,836
Non-trainable params: 0
_________________________________________________________________
None

Fold 0
accuratezza media per l'epoca 0 sul training set: 0.209727080015
accuratezza sul test set :0.25---------------------
accuratezza media per l'epoca 1 sul training set: 0.243204966624
…
