_________________________________________________________________
Layer (type)                 Output Shape              Param #   
=================================================================
lstm_1 (LSTM)                (1, 5, 12)                1152      
_________________________________________________________________
lstm_2 (LSTM)                (1, 5, 12)                1200      
_________________________________________________________________
dropout_1 (Dropout)          (1, 5, 12)                0         
_________________________________________________________________
lstm_3 (LSTM)                (1, 5, 12)                1200      
_________________________________________________________________
dropout_2 (Dropout)          (1, 5, 12)                0         
_________________________________________________________________
lstm_4 (LSTM)                (1, 12)                   1200      
_________________________________________________________________
dense_1 (Dense)              (1, 8)                    104       
_________________________________________________________________
dense_2 (Dense)              (1, 4)                    36        
=================================================================
Total params: 4,892
Trainable params: 4,892
Non-trainable params: 0
_________________________________________________________________
None

Fold 0
accuratezza media per l'epoca 0 sul training set: 0.415453164569
accuratezza sul test set :0.125---------------------
accuratezza media per l'epoca 1 sul training set: 0.534480241928
…
