_________________________________________________________________
Layer (type)                 Output Shape              Param #   
=================================================================
lstm_1 (LSTM)                (1, 5, 11)                1012      
_________________________________________________________________
lstm_2 (LSTM)                (1, 5, 11)                1012      
_________________________________________________________________
dropout_1 (Dropout)          (1, 5, 11)                0         
_________________________________________________________________
lstm_3 (LSTM)                (1, 5, 11)                1012      
_________________________________________________________________
dropout_2 (Dropout)          (1, 5, 11)                0         
_________________________________________________________________
lstm_4 (LSTM)                (1, 16)                   1792      
_________________________________________________________________
dense_1 (Dense)              (1, 8)                    136       
_________________________________________________________________
dense_2 (Dense)              (1, 4)                    36        
=================================================================
Total params: 5,000
Trainable params: 5,000
Non-trainable params: 0
_________________________________________________________________
None
Fold 0accuratezza media per l'epoca 0 sul training set: 0.41634502577accuratezza sul test set :0.125---------------------accuratezza media per l'epoca 1 sul training set: 0.610948949296a
…
