_________________________________________________________________
Layer (type)                 Output Shape              Param #   
=================================================================
lstm_1 (LSTM)                (1, 5, 16)                1792      
_________________________________________________________________
lstm_2 (LSTM)                (1, 5, 16)                2112      
_________________________________________________________________
dropout_1 (Dropout)          (1, 5, 16)                0         
_________________________________________________________________
lstm_3 (LSTM)                (1, 16)                   2112      
_________________________________________________________________
dense_1 (Dense)              (1, 8)                    136       
_________________________________________________________________
dense_2 (Dense)              (1, 4)                    36        
=================================================================
Total params: 6,188
Trainable params: 6,188
Non-trainable params: 0
_________________________________________________________________
None

Fold 0
accuratezza media per l'epoca 0 sul training set: 0.391012347726
accuratezza sul test set :0.125---------------------
accuratezza media per l'epoca 1 sul training set: 0.423520208922
…
